checkpoint/95.45543012845465_32_2.pth (torch_old, 965805 bytes, 282 tensors)

conv1.0.weight f4 [24, 3, 3, 3]
000000 e0 70 ec 3e 5f 43 a8 bf 5c d6 1d c0 8a 0c 76 3f
       0.46179867 -1.314556 -2.4662085 0.96112883
000010 79 f4 f1 3f 09 3e 5b 3f 30 0f ee bf 1a 73 96 bf
       1.8902732 0.85641533 -1.8598385 -1.1753876
000020 4c 09 14 3f aa 99 32 3f 1f 2f 9f bf 97 56 1e c0
       0.57826686 0.6976572 -1.2436255 -2.474035
000030 aa ed d5 bf 69 46 5b be 44 ed cd bf 4c 12 0f bf
       -1.6713154 -0.21413578 -1.6088033 -0.55887294
000040 5a f7 6b bf d7 fa 4b 3f 69 b4 e5 3e 9b e5 83 c0
       -0.92174304 0.79679626 0.44864205 -4.121778
000050 3b 0a 69 c0 00 0f f4 bf 05 31 fd bf d9 5b 31 bf
       -3.6412494 -1.9067078 -1.9780585 -0.69280773
000060 d9 fc 8e 3f bb dc 22 3f 2d 4e 88 40 b9 64 a4 c0
       1.1170913 0.6361806 4.259543 -5.1372952
000070 e1 79 12 3e 81 8e 32 c0 ff 08 47 40 41 9f 96 40
       0.14304306 -2.7899477 3.109924 4.70694
000080 bb ad 1a 40 44 74 48 c0 b9 92 e2 bf 48 b7 db bf
       2.4168537 -3.1320963 -1.7701026 -1.7165308
000090 39 95 68 bf 0c cd fd 3f fe c2 50 3f 4c 01 2b 40
       -0.90852696 1.98282 0.81547534 2.6719542
0000a0 2a 19 34 40 4a be 0a 40 37 50 32 c0 c7 c1 24 c0
       2.814036 2.1678643 -2.786146 -2.5743272
0000b0 ac ab 10 c0 c0 0f be 3f f6 ce 0c 40 a5 70 e9 3f
       -2.260478 1.4848557 2.200132 1.8237501
0000c0 91 41 20 40 da 11 b4 3f 42 16 62 3f 41 fb 95 bf
       2.5040019 1.4067948 0.8831521 -1.1717302
0000d0 54 97 0f c0 27 fc ee bf c5 ea 86 3e 4b 03 4c bf
       -2.2436113 -1.8670701 0.2635099 -0.79692525
0000e0 51 1a 33 3f ab 94 3b 40 a4 0e 83 c0 27 1e 15 c0
       0.6996203 2.930949 -4.095537 -2.3299654
0000f0 c4 c6 7c be 85 f5 05 be bf 31 63 3f 3b 8f ba 3f
       -0.24685198 -0.1308194 0.8874778 1.457496
000100 06 ca ae 3e e2 97 4f 3f 96 09 8e 3f 55 4b 69 c0
       0.34138507 0.8109113 1.1096675 -3.645223
000110 e8 f9 9e c0 b1 b2 36 bd 9f 4a e6 3f 56 77 d7 3e
       -4.968006 -0.044604007 1.7991523 0.42083234
000120 2b 53 05 40 04 8d 19 bf 88 e9 b3 bf 76 90 45 40
       2.0832012 -0.599808 -1.4055643 3.0869422
000130 c9 09 43 c0 15 71 fa c0 d7 2a 25 40 91 2f 6a 40
       -3.0474722 -7.826304 2.5807397 3.6591532
000140 04 f2 cc bf 31 ba 47 3e 40 c3 1e bf 9c 2c 03 c0
       -1.6011357 0.1950462 -0.6201668 -2.0495977
000150 48 3c 46 bf 41 35 8b bf 2d f7 a2 bf 74 90 2a be
       -0.7743573 -1.0875627 -1.2731682 -0.16656667
000160 dc 7b 83 bf 12 9f ad bd c7 b9 33 3f 86 df 92 be
       -1.0272174 -0.08477606 0.7020535 -0.2868616
000170 da 36 86 bf 1d 76 b7 bf f9 c6 1c c0 68 7c 84 bf
       -1.0485489 -1.433292 -2.4496443 -1.0350466
000180 fe a2 bb be d0 43 ed bf 78 e5 91 3f 0b 33 fa 3e
       -0.3664779 -1.853632 1.1398153 0.48867068
000190 3c 24 26 bf 89 a1 0f 3f 07 4f e0 bf 1f 9f 35 c0
       -0.6489904 0.5610586 -1.7524117 -2.837837
0001a0 82 02 1c 3f 64 7b 8c bd 5d b9 ce bf e3 f5 1d 40
       0.60941327 -0.068594724 -1.6150318 2.4681327
0001b0 2a 07 8b bf 47 39 8a c0 b4 d4 34 3f b5 59 8b 3f
       -1.0861561 -4.319492 0.7063706 1.0886751
0001c0 75 0a 9f bf 3a 99 0a 40 71 2f bf 40 dd 0d 97 40
       -1.2425066 2.1656022 5.974541 4.7204423
0001d0 68 e4 9a 40 b5 21 96 3f 2a a3 af bf 2c 84 a4 3f
       4.8403816 1.1729037 -1.3721669 1.2852836
0001e0 37 7b fd bf 7b 2f 89 c0 09 58 0f bf 6e 9a 1d c0
       -1.9803227 -4.287046 -0.55993706 -2.4625506
0001f0 f7 c4 0f c0 06 c8 1f c0 2b f4 17 3f 2e e9 78 be
       -2.2463968 -2.4965835 0.59356946 -0.24307701
000200 61 65 32 bd 33 78 d1 3f 2a c1 12 3f 7f 08 07 40
       -0.043553714 1.6364807 0.57325995 2.1098936
000210 eb a1 17 40 04 27 03 40 b9 e6 57 3f ac 8e 92 3f
       2.3692577 2.0492563 0.8433643 1.144979
000220 30 21 be 40 3b 3a 39 c0 ab 41 1e 3f 11 0c 96 3e
       5.941551 -2.894179 0.6181895 0.2930608
000230 14 e4 b3 c0 af 6b bc 3f a0 9f b6 bf 88 51 d0 3f
       -5.6215916 1.4720362 -1.4267464 1.6274881
000240 32 2f 9c 3f f1 13 ae 40 49 c5 2e c0 de 43 1c 3f
       1.2201903 5.4399343 -2.7307913 0.6104106
000250 8c ac 96 3f a7 6e 90 c0 8a a5 f0 3f d0 b2 8b 3f
       1.1771407 -4.5135074 1.8800519 1.0913944
000260 9c 85 31 40 e4 40 d0 3e 4d 68 85 40 d5 17 3c bf
       2.7737799 0.40674508 4.168982 -0.73473865
000270 7c 84 0d bf 06 38 0a 3f c8 e6 fe bf de a2 07 3f
       -0.5528028 0.53991735 -1.9914179 0.5298289
000280 20 95 b1 3e 4f e6 4c 40 25 9b 94 3f 02 95 d0 3f
       0.34684086 3.201557 1.1609846 1.6295474
000290 30 e4 17 bf 90 0c dd 3f ec 9b 35 40 eb c2 19 40
       -0.5933256 1.7269459 2.8376417 2.4025218
0002a0 29 d4 a7 be 92 08 e6 3e 6e d8 37 c0 aa f4 b9 bf
       -0.32779053 0.44928414 -2.8725848 -1.452779
0002b0 d6 84 4c bf 58 cd 62 bf 15 a1 e3 bb 1c 3d dc 3e
       -0.7989019 -0.8859458 -0.0069466927 0.43015373
0002c0 fe 60 41 3f b8 56 0f 3f 83 08 b3 3e ff 3f a4 bf
       0.75538623 0.559917 0.3496743 -1.283203
0002d0 0d 41 98 c0 d2 05 8c c0 5f 53 d9 be 81 00 89 c0
       -4.757941 -4.3757105 -0.4244642 -4.2813115
0002e0 dc 26 43 c0 93 9f 18 40 92 c8 4e c0 64 5c 27 c0
       -3.0492468 2.3847396 -3.2309918 -2.615014
0002f0 83 79 bd 3f ca be a4 bf 8f bd 73 bf a4 da c1 3f
       1.4802707 -1.2870724 -0.9521112 1.5144849
000300 55 cc 5c 3e 8f 30 9e 3e 64 7a 93 bf 9a 59 0a 3e
       0.21562321 0.30896422 -1.1521726 0.13510743
000310 38 45 b9 be 45 72 16 c0 0a 2a 7a bf f0 83 56 bf
       -0.36185622 -2.3507245 -0.97720397 -0.8379507
000320 70 43 ce 3f 45 8c 80 be 11 f3 46 bf 93 15 b9 bf
       1.611433 -0.25107017 -0.7771464 -1.4459709
000330 1d c8 f1 be 93 83 ab bf b5 21 f9 bf ca a2 5f bf
       -0.47222987 -1.3399528 -1.9463412 -0.8735777
000340 a7 be ab bf db 58 d5 3f 0b 29 37 bf 53 63 05 c0
       -1.3417557 1.6667742 -0.71547 -2.0841873
000350 f0 ac 94 bf 83 fd ee 3d 74 cb dd bf 8d 97 79 bf
       -1.1615276 0.11669447 -1.7327714 -0.97496873
000360 63 18 8c 3f 40 30 a8 3f 2b 12 2f bf e7 b6 8a 3f
       1.0944942 1.3139725 -0.683871 1.0837067
000370 df a0 08 bf c7 3d 96 bf f3 cb 80 c0 26 20 85 c0
       -0.5337047 -1.1737603 -4.024896 -4.1601744
000380 a2 39 00 c0 40 96 14 bf 62 7d 53 be 79 e8 84 bf
       -2.0035176 -0.58041763 -0.20653298 -1.0383445
000390 97 d4 6e 3f b2 e1 3c be d7 c5 0a be 04 0a 60 bf
       0.93293136 -0.18445471 -0.13552032 -0.8751528
0003a0 0a fe e5 bf 5c 85 af 3f 09 ef a2 be 36 7a e9 bc
       -1.7968152 1.3712573 -0.31822994 -0.028500658
0003b0 c4 fa 1b bf 3a db e0 bd eb 27 ff bf bf a0 cb 3e
       -0.6092951 -0.10979314 -1.9934057 0.39771077
0003c0 03 22 33 bf e3 1d 2d c0 18 43 4e 40 ad c7 32 3f
       -0.6997377 -2.7049491 3.222845 0.6983593
0003d0 67 17 e8 be b1 52 9b 3f b9 2e de bf 65 f5 b7 c0
       -0.45330355 1.213461 -1.7358009 -5.7487054
0003e0 a2 61 27 3f 9c 26 34 40 19 1e 38 be 8f df eb 3f
       0.6538335 2.8148565 -0.17980231 1.84276
0003f0 27 ff 88 3e 80 27 2d be a2 5c 55 3f eb 6d fd bf
       0.26757166 -0.169096 0.8334447 -1.9799169

conv1.1.weight f4 [24]
000000 fb 7a 83 40 f6 85 0e 40 9f 24 8b 40 fd 57 7c 40
       4.1087623 2.2269263 4.3482203 3.9428704
000010 99 78 1b 40 73 bd 72 40 bf 6e 46 40 16 d6 92 40
       2.4292357 3.792813 3.1005094 4.5886335
000020 c2 11 76 40 fe e6 90 40 85 33 79 40 a3 68 7e 40
       3.8448339 4.5281973 3.8937695 3.9751365
000030 23 b5 0c 40 7e 12 79 40 12 1c 7a 40 65 35 9e 40
       2.1985557 3.8917537 3.9079633 4.944018
000040 f3 33 69 40 77 32 8b 40 21 55 6c 40 cc d5 4e 40
       3.6437957 4.3499103 3.6926959 3.2317991
000050 30 9d 77 40 c5 46 15 40 14 1b 5f 40 7d 9f 90 40
       3.868969 2.3324444 3.4860277 4.519469

conv1.1.bias f4 [24]
000000 f7 18 bc 40 47 be 4c 3f 9e 61 65 40 c6 3a 9e c0
       5.8780475 0.7997784 3.584083 -4.9446745
000010 63 41 6a 3f cf fb 49 40 79 60 df 40 e0 17 30 c0
       0.9150602 3.1559942 6.9805264 -2.7514572
000020 25 40 b8 40 0f fc d5 c0 0d 71 93 40 d0 ca a9 40
       5.75783 -6.687019 4.60755 5.3060074
000030 c3 ec 18 40 a1 ed e2 3f b3 32 1f 3e 58 b6 04 41
       2.3894508 1.7728769 0.15546684 8.2945175
000040 1d 47 ba 3f 54 b5 42 40 e1 bc 05 40 24 84 e9 be
       1.4552952 3.0423174 2.0896533 -0.45608628
000050 8c 8e 09 40 c6 44 b9 3f 6c 28 35 c0 45 6a 46 40
       2.1493254 1.4474113 -2.8305922 3.1002362

conv1.1.running_mean f4 [24]
000000 53 35 33 40 6f ac 17 c0 0d 92 26 40 9c 85 eb 3f
       2.8001297 -2.3698995 2.6026642 1.8400149
000010 3b 71 62 3f 17 1c 22 c0 7f 99 b7 40 a0 90 53 40
       0.88454026 -2.5329645 5.7374873 3.3057022
000020 bd 87 4c 3f 2f bd 90 3e d3 40 04 c0 e3 81 5d bf
       0.7989462 0.28269336 -2.0664566 -0.86526316
000030 4b 03 33 c0 c9 d4 97 c0 32 f8 08 c0 01 13 9f 40
       -2.797076 -4.7447248 -2.1401486 4.97107
000040 87 3c db bf fd 34 d6 bf 11 e2 8d c0 64 62 37 c0
       -1.7127846 -1.6734921 -4.433846 -2.8653803
000050 2c 9a 53 c0 05 a4 f1 bf 56 d0 f1 bc 72 f9 d4 bf
       -3.306285 -1.887818 -0.029518288 -1.6638625

conv1.1.running_var f4 [24]
000000 05 1e 08 43 a2 4e ee 41 5a 97 10 43 1b 0f 36 43
       136.11726 29.788395 144.59122 182.059
000010 2b 88 a1 42 49 d4 0a 43 df c4 c7 42 5a 7b 3a 43
       80.76595 138.82924 99.884514 186.48184
000020 14 5f 17 43 ff 6d 18 42 bf f1 38 43 d6 55 68 43
       151.3714 38.107418 184.94432 232.3353
000030 24 2c 55 43 c3 70 e5 42 57 af 0b 43 0d b1 21 44
       213.17242 114.72024 139.68492 646.7664
000040 3d 38 16 43 0d 7b 82 43 50 fa 48 43 07 e5 4f 42
       150.21968 260.96133 200.97778 51.97366
000050 44 6e 97 42 f3 07 70 42 de c3 b7 42 61 63 04 43
       75.71536 60.007763 91.88255 132.3882

features.0.banch1.0.weight f4 [24, 1, 3, 3]
000000 92 54 fe bf a0 47 0d 3e 81 bc 55 3e c2 1b 04 40
       -1.9869559 0.13796854 0.2087269 2.0641942
000010 ce 7d 3f 40 21 77 9a 3e 05 56 ee be a1 f1 aa 3f
       2.9920535 0.30169013 -0.46550003 1.3354989
000020 e4 53 9d bf a6 44 72 bf ea 0d b7 bf 45 a2 19 c0
       -1.2291226 -0.94636 -1.4301121 -2.4005291
000030 6e bf ca 3e 85 7e 49 40 cd f7 cf 3f 2e 27 d0 3f
       0.39599174 3.1483471 1.6247498 1.6261957
000040 e1 80 84 3f 40 3e 2f 40 d7 55 66 bf 87 6b aa bf
       1.0351831 2.7381744 -0.8997473 -1.3314065
000050 57 e3 a0 3f a3 f5 69 c0 e0 e3 a4 c0 e3 04 d0 bf
       1.2569379 -3.6556175 -5.152817 -1.6251491
000060 1b 86 a4 3f 73 a1 98 be 7b 5e 16 3f db 2f 13 3f
       1.2853426 -0.29810676 0.58737916 0.57494897
000070 88 ad d9 bd 99 83 bd bf 06 f4 df be 04 02 14 c0
       -0.106288016 -1.4805785 -0.43740863 -2.312623
000080 ee c0 c2 bf 69 38 6d bf 74 6d 75 c0 14 81 e1 bf
       -1.5215127 -0.926642 -3.8348055 -1.7617517
000090 c9 b8 41 bf f8 ed 39 3f ac 13 9a bf 86 1e a7 3d
       -0.75672585 0.72628736 -1.2037253 0.08160119
0000a0 75 ec 9e 3f fe f0 bf bf ec 2f 18 40 46 76 9d 40
       1.2415911 -1.499542 2.377925 4.9206877
0000b0 46 29 85 40 28 aa 14 40 29 ba 04 3f 13 64 9a c0
       4.1612883 2.3228855 0.5184656 -4.824716
0000c0 eb c8 38 40 3f c7 a8 3e 77 b9 61 c0 3f 54 e3 3f
       2.887263 0.32964513 -3.5269449 1.7760085
0000d0 38 26 00 be f3 6c 84 3e dc 70 6c bf 16 6f 07 bf
       -0.1251458 0.25864372 -0.9235971 -0.5290388
0000e0 20 fb d8 bf 79 00 09 40 f6 b8 fd 3f f5 80 19 3e
       -1.6951637 2.1406538 1.9822071 0.149906
0000f0 9e 65 08 40 d6 ef 85 bc 44 8e 8f 3f d6 b9 45 c0
       2.1312022 -0.016349714 1.1215291 -3.0894675
000100 82 e3 1c c0 ea ee 08 c0 ed 0f b1 bf f6 a6 43 be
       -2.451386 -2.1395822 -1.3832985 -0.1910666
000110 c2 b1 90 bf bc 92 f6 be d0 2e c4 bf 84 f1 86 3f
       -1.1304247 -0.48158824 -1.5326786 1.0542455
000120 f1 16 8c bf 8d 4c 16 c0 21 26 de bf a3 98 59 bf
       -1.0944501 -2.3484223 -1.7355386 -0.8499853
000130 e2 74 aa c0 40 88 41 be 2e cc b6 3f 6d c7 43 3f
       -5.326768 -0.18899632 1.4281061 0.76476175
000140 26 7f 66 3f f7 8e 9e bc e0 01 10 3f ff 78 94 3e
       0.90037763 -0.01935528 0.5625286 0.28998563
000150 07 13 fd 3f 40 16 7f 3f 94 19 8f 3f cb b6 97 3f
       1.9771432 0.99643326 1.1179681 1.1852659
000160 a3 98 3d bf 94 77 0b bf 27 72 cc bf d1 f4 5b c0
       -0.7406103 -0.54479337 -1.5972337 -3.4368174
000170 f9 9c c0 bf e7 74 42 bf 60 b7 18 c0 24 05 1b bf
       -1.5047904 -0.7595963 -2.3861923 -0.6055472
000180 a2 e6 91 3e e1 6d 30 bf 29 41 36 3e 1e ce e5 bf
       0.2849627 -0.6891766 0.17798294 -1.7953527
000190 99 81 36 40 53 2c ea 3f cd 53 f7 3f eb c4 b6 40
       2.85166 1.8294777 1.9322449 5.711538
0001a0 b3 a7 69 40 fa b4 02 c0 ca 0d a8 3e 34 f1 e1 3f
       3.6508605 -2.042296 0.3282302 1.7651734
0001b0 94 f2 cf be 2e de 3d 3e e1 3a 3e 40 47 15 00 3d
       -0.4061476 0.18541786 2.9723437 0.03127029
0001c0 0f ab 30 40 87 92 a8 40 b4 52 cf be 7a 9d f1 3f
       2.7604406 5.2678866 -0.40492785 1.8876183
0001d0 d2 dc b8 40 c9 e9 8b bf 9a 9a d2 bc d3 9f d4 3f
       5.7769556 -1.093072 -0.025708485 1.6611274
0001e0 3c fd 90 bf 24 0b b9 3e cb e1 6d 40 17 76 bb 3f
       -1.1327281 0.36141312 3.7169063 1.4645413
0001f0 36 46 ec bf d2 64 a0 3f 2c fa 11 be 78 cc be 3f
       -1.8458927 1.2530768 -0.14255589 1.4906149
000200 90 1c d8 bf 74 3c 03 40 c8 87 9e 40 63 b5 64 c0
       -1.6883717 2.0505648 4.954075 -3.573571
000210 ef ac cc 3e 73 e4 ef bf d8 91 2a c0 2a 37 b4 bf
       0.39975688 -1.8741592 -2.6651516 -1.4079335
000220 82 b9 f5 bf 54 28 0b 40 d5 5c 7a c0 52 18 85 c0
       -1.9197237 2.1743364 -3.911916 -4.159219
000230 95 d7 25 c0 59 e9 ff bf 2e c2 d6 be 0b d8 f7 bf
       -2.591283 -1.9993087 -0.41945022 -1.9362806
000240 28 28 c4 3f 1a bf 85 bf 5a cd df bf 54 5b 9e 3e
       1.5324755 -1.0448945 -1.7484543 0.30929053
000250 c9 39 91 c0 16 1f a5 c0 47 13 0f 3f 4f e6 25 c0
       -4.538304 -5.1600447 0.5588879 -2.592182
000260 ab b1 a5 c0 34 03 0e c0 f5 27 83 c0 86 81 45 3f
       -5.177938 -2.2189455 -4.0986276 0.7715076
000270 c0 f5 c2 bf f7 84 c1 c0 99 b4 26 c0 db 75 01 bf
       -1.5231247 -6.047481 -2.6047728 -0.5057046
000280 c2 19 90 bf f7 69 2c 40 f0 99 d7 bf 74 6e f7 bf
       -1.1257861 2.6939676 -1.6843853 -1.9330583
000290 54 6f 29 c0 74 e3 ae 3e d5 3d 88 40 f8 65 da bf
       -2.64742 0.34157908 4.257548 -1.7062368
0002a0 ba e3 40 40 ed 07 c8 40 87 d8 94 40 8c fa e3 bf
       3.0138993 6.2509675 4.6514316 -1.7810836
0002b0 63 e6 36 bf ac ad cb bc 53 a6 e1 bf 78 20 7f be
       -0.7144529 -0.024863087 -1.7628883 -0.2491473
0002c0 6a 05 b6 bd 7d 2c b0 bf 5b e1 19 c0 5e 99 11 3f
       -0.088877514 -1.3763577 -2.4043796 0.56874645
0002d0 ad 9e 5a bf 99 fc a2 c0 d5 bb e9 bd 92 37 ef bf
       -0.8539837 -5.0933347 -0.11412779 -1.8688834
0002e0 de f1 3b c0 07 28 a2 be 13 bf 4a 40 8c 33 01 c0
       -2.9366374 -0.31671163 3.1679122 -2.0187712
0002f0 1b 93 fe 3f 62 cb 0e c0 d3 1c 4c c0 65 83 11 c0
       1.9888643 -2.2311635 -3.1892593 -2.2736447
000300 1d 31 a2 3d 66 c6 f7 3f 3a e7 c0 3f df 5c d5 3f
       0.07919524 1.9357421 1.5070565 1.6668967
000310 86 3f 16 40 3c 73 90 40 f6 77 10 40 dd 80 d6 3f
       2.3476272 4.5140667 2.2573218 1.6758076
000320 34 9d c2 3f 8c dd cc 3d 13 77 9a bf 61 af 4f bf
       1.5204225 0.10003194 -1.2067589 -0.8112698
000330 d3 ce 6a 3f 00 5b 79 c0 7a 98 a4 bf 98 ba 8e bf
       0.9172184 -3.8961792 -1.2859032 -1.1150694
000340 f8 f9 b7 bf a1 1d e6 3e b1 a3 54 3f 75 11 52 bf
       -1.437316 0.4494448 0.83062273 -0.8205789
000350 76 5d 73 40 92 69 18 40 67 24 c4 3f ee c8 6c 40
       3.8025794 2.3814435 1.5323609 3.6997638

features.0.banch1.1.weight f4 [24]
000000 71 5f 36 40 85 71 1b 40 f0 08 44 40 d9 48 49 40
       2.8495753 2.4288037 3.0630455 3.1450713
000010 71 93 80 40 03 87 5a 40 cf 66 3a 40 42 ee 6f 40
       4.017998 3.4144905 2.912525 3.748917
000020 d5 3a 89 40 8b c1 a4 3f 48 d9 6f 40 e3 b6 b2 40
       4.2884316 1.2871565 3.7476368 5.584825
000030 af e4 ca 40 11 2a 32 40 93 c4 53 40 86 da a2 40
       6.3404155 2.7838175 3.308873 5.089175
000040 01 46 df 40 25 0d c3 40 94 5e d3 40 0d e1 fe bf
       6.9772954 6.0953546 6.605295 -1.991243
000050 58 32 97 40 62 ce 7e 40 41 bb 2c 40 86 7e 80 40
       4.7248955 3.9813466 2.698929 4.0154448

features.0.banch1.1.bias f4 [24]
000000 de 92 24 b7 fd 21 5b 37 e4 bf 0a b8 b9 d0 3c b8
       -9.809357e-06 1.3061331e-05 -3.3080476e-05 -4.501708e-05
000010 09 45 f7 37 ee 26 f4 36 00 55 aa b7 f6 81 fd 37
       2.9476842e-05 7.2762987e-06 -2.030516e-05 3.0220468e-05
000020 7d f4 07 b5 29 11 33 b7 8a 94 b4 37 ec 94 17 b8
       -5.0647196e-07 -1.0673227e-05 2.1526841e-05 -3.61399e-05
000030 1a 11 db 36 34 ea bc 37 47 df 4b b8 b1 58 ae 36
       6.5286995e-06 2.2520406e-05 -4.8606915e-05 5.195929e-06
000040 ac 91 26 b5 4d 9e 27 37 fc 59 49 37 53 b1 80 38
       -6.20518e-07 9.990833e-06 1.2001485e-05 6.136545e-05
000050 06 2f 64 b8 ca 02 fb 37 eb 79 ce b6 ce c5 13 b7
       -5.440323e-05 2.992283e-05 -6.1534715e-06 -8.807938e-06

features.0.banch1.1.running_mean f4 [24]
000000 02 52 f7 41 55 10 ad 41 aa fd 65 c2 b0 32 e3 c0
       30.915043 21.632975 -57.49772 -7.0999374
000010 cb ae d6 41 69 7a 4f c1 ab 24 18 42 c7 46 3a c1
       26.835348 -12.967385 38.03581 -11.64228
000020 65 4a 59 c2 19 9a 46 40 fe 19 77 c2 c9 c6 d1 42
       -54.32265 3.1031554 -61.775383 104.88825
000030 da ab 87 42 ca 0b 9d 41 9d cf a4 c0 2f 63 15 c3
       67.83565 19.630756 -5.1503434 -149.38744
000040 f7 08 86 c2 6c 55 8f c2 39 8a 39 42 79 23 3c c1
       -67.01751 -71.66684 46.384983 -11.75866
000050 e9 ca 05 c2 52 55 b0 41 8d 24 f3 c0 6c 7f 78 42
       -33.448154 22.04166 -7.598212 62.124435

features.0.banch1.1.running_var f4 [24]
000000 83 ca 7f 43 55 a1 51 43 94 30 5b 44 1b 12 cd 42
       255.79106 209.6302 876.75903 102.53536
000010 87 51 97 43 19 95 27 44 03 61 e9 43 f2 6c 77 43
       302.63693 670.32965 466.7579 247.42557
000020 12 62 6a 44 7b 50 f6 41 8b ac 7d 44 e6 30 0e 45
       937.53235 30.789297 1014.696 2275.0562
000030 1e 27 52 44 ed c0 53 43 f4 b4 21 43 c0 88 4f 45
       840.6112 211.75362 161.70685 3320.5469
000040 36 9f 12 45 b9 59 05 45 d2 2f bd 44 87 0a c3 42
       2345.9507 2133.6077 1513.4944 97.52056
000050 c8 f4 32 44 55 6f 9e 43 c0 41 4e 43 1c 8d 48 44
       715.8247 316.86978 206.25684 802.20483

features.0.banch1.2.weight f4 [24, 24, 1, 1]
000000 56 0c 18 c0 f2 a8 53 c0 3c 2c 29 40 3d 75 55 40
       -2.375753 -3.3071866 2.6433249 3.3352807
000010 00 81 d9 c0 7a 05 3a c0 cd 56 7f 3f f7 5e 67 3f
       -6.796997 -2.9065843 0.9974182 0.9037928
000020 8f ac 5b 40 a2 f5 b3 3f 3f 0c 81 3f 79 93 1c 40
       3.4324071 1.4059336 1.0081862 2.446501
000030 08 61 ba 3d 7a 7a 97 3f 6c 7b 8b 3f 67 8e 1a be
       0.091005385 1.1834252 1.089704 -0.15093385
000040 c3 c6 58 3f c3 44 64 c0 11 b6 08 c1 d4 09 aa be
       0.84678286 -3.566697 -8.54445 -0.33210623
000050 4d d1 a9 c0 9f 66 8a c0 97 ba 77 40 15 f2 60 c0
       -5.3067994 -4.325027 3.8707635 -3.5147755
000060 fd d8 c0 3f 0b a8 cf bd eb 69 f4 bf a2 0c 98 3f
       1.506622 -0.101394735 -1.9094824 1.1878855
000070 da 83 94 3d 58 c0 97 40 72 58 04 3f 96 cf 0b 3e
       0.07251711 4.7422295 0.51697457 0.13653407
000080 8d e9 13 c0 ed 5f 50 3f 05 0d 1b bf 1b 88 80 c0
       -2.3111298 0.8139637 -0.6056674 -4.0166144
000090 a0 98 9e c0 0e 74 2d be 9f d8 b6 3f ee 88 e2 bf
       -4.956131 -0.16938803 1.4284858 -1.7698038
0000a0 fb ee 21 40 c1 d1 b0 c0 d6 43 0e 3f 0e 43 97 3f
       2.5302112 -5.5256047 0.5557226 1.1817338
0000b0 3f 88 be 3f 41 95 62 3d 9b 1b 1d 3f 00 c2 88 3d
       1.4885329 0.05531812 0.6137025 0.066776276
0000c0 94 8e c0 be 6b 61 ba 3e ad 56 f1 3e a5 39 20 bf
       -0.37608778 0.3640245 0.4713644 -0.6258796
0000d0 a8 31 28 3f 37 d9 00 c0 92 47 69 3f 86 e1 83 3d
       0.6570077 -2.0132577 0.9112483 0.064394996
0000e0 12 a2 bc 3f 0f 25 0c bf bf 0d 8f 3e 9b 02 86 40
       1.473696 -0.54744047 0.27940175 4.187818
0000f0 3c f8 86 40 b5 60 ee 3e 9c 53 67 c0 78 4f 65 3f
       4.217802 0.46558157 -3.614478 0.89574385
000100 7e 9d 10 c1 37 29 a8 3e 59 81 be 3f 9f bf 50 bf
       -9.03845 0.32843944 1.4883224 -0.8154239
000110 19 cd 87 bf dc a5 b8 3f b2 8d 82 bf 78 7e cd 3f
       -1.0609466 1.4425616 -1.0199492 1.605422
000120 99 58 c9 3e c5 19 f1 be 9a 86 2a c0 a3 64 cc 3f
       0.39325407 -0.47089973 -2.6644654 1.5968212
000130 6c 89 b3 3f 01 ec 14 40 ce 8c 09 3f d1 94 32 be
       1.4026313 2.3269045 0.53730476 -0.17439581
000140 da f1 e8 bf 33 79 fc 3e a5 e1 30 c0 87 51 bf bf
       -1.8198807 0.49311218 -2.7637722 -1.4946755
000150 1c 17 54 bf d2 d0 3c c0 b3 e9 91 3d 5e ab e8 3f
       -0.8284776 -2.9502454 0.07124653 1.8177297
000160 c4 2a 23 3e 7a 16 c2 3f c9 3a 52 40 61 39 39 40
       0.15934283 1.5163109 3.284838 2.8941271
000170 7c a8 69 3f 69 92 aa 3e e2 91 a9 bf 82 39 07 40
       0.9127271 0.33314827 -1.3247645 2.112885
000180 04 78 d2 3d 9e 34 26 3e 11 df 50 3d 57 bf 3e bf
       0.102767974 0.1623101 0.050993983 -0.7451071
000190 40 7d 61 3f c6 26 1c c0 af 5c 3f 40 85 cc e5 bf
       0.8808174 -2.4398665 2.990032 -1.795304
0001a0 c1 83 bf bf f1 e3 bd 3e d4 31 52 c0 b2 29 84 3e
       -1.4962083 0.37087968 -3.2842913 0.2581306
0001b0 f6 b5 29 40 bd f7 29 40 91 5a 35 bd 33 48 ab c0
       2.651731 2.6557457 -0.044275824 -5.3525634
0001c0 80 9b ef bf 90 d1 fd 3f 19 5f 9e 3e cd eb b4 bf
       -1.871933 1.9829578 0.3093193 -1.4134461
0001d0 e5 40 d9 be 5a b1 5a 3f 3a 65 77 be 6f bb 93 3d
       -0.42432323 0.85426867 -0.24159709 0.072134845
0001e0 78 ed 1c c0 8b 9c 39 3e 09 eb 24 40 43 5d 4c 3f
       -2.451994 0.18126123 2.5768454 0.79829806
0001f0 20 ae e1 be ad a5 ca 3d f5 8e 0b c0 e5 d4 40 c0
       -0.4407816 0.098948814 -2.1806004 -3.012994
000200 08 5c e3 3f 9d 2e 93 3f 23 8c 99 3f b0 b1 3b 40
       1.7762461 1.14986 1.1995891 2.9327202
000210 47 50 a5 c0 bc f4 c3 bf 02 2e 77 40 d2 29 d7 3f
       -5.1660495 -1.5309062 3.862183 1.6809638
000220 d9 87 0e 3f 65 e3 c3 c0 60 c3 0a 40 6c 95 3c bf
       0.5567604 -6.121508 2.1681747 -0.736655
000230 30 5f 0c bf ce f9 21 3e e5 c9 6e 3f 05 30 1f c0
       -0.54832745 0.15817949 0.93276817 -2.4873059
000240 65 4a 99 3f 7b 33 8b bf 19 fa 02 c0 45 24 47 bf
       1.1975828 -1.0875086 -2.0465147 -0.7778972
000250 0a 39 88 be 7b 33 e9 be b2 1e 05 40 25 7e 08 c0
       -0.26606017 -0.4554709 2.0799985 -2.1326993
000260 46 f0 2b c0 f5 59 98 be 64 90 38 c0 ee f1 b9 bf
       -2.6865401 -0.29756132 -2.883813 -1.4526956
000270 57 c9 4e 3e 51 82 13 3f 8a f9 a8 be 25 7b 7f c0
       0.20193993 0.5762072 -0.33002883 -3.9918911
000280 26 14 e0 bf 72 2d b0 be 29 74 90 be 1e 6c 18 3f
       -1.7506149 -0.34409672 -0.28213623 0.59539974
000290 d2 45 1b 3f fd f3 aa bf 89 aa 67 3f 57 f8 a0 bf
       0.6065341 -1.3355709 0.9049459 -1.2575787
0002a0 a1 99 e0 3e 95 8b 22 40 81 c5 fb be f9 89 a5 bf
       0.4386721 2.5397694 -0.4917412 -1.2932731
0002b0 68 9b 8b be d4 f9 68 bf 2c b3 b4 3f 13 d0 11 c0
       -0.27267003 -0.9100621 1.4117179 -2.2783248
0002c0 e7 0d f8 3e 55 09 23 3f e9 b7 cc be 10 17 a4 3f
       0.48448107 0.63686115 -0.39984062 1.2819538
0002d0 12 f6 1c 40 3b 91 80 3f 2d 75 a9 be 27 93 44 c0
       2.452519 1.0044321 -0.3309721 -3.0714815
0002e0 28 20 60 bf ee 9c d7 bf 20 1d 89 3f 1a 73 bd 3e
       -0.87549067 -1.6844766 1.0712013 0.37001878
0002f0 31 4b b5 bf 26 10 16 40 0f 3c 47 3f 51 f6 b1 bf
       -1.4163572 2.3447356 0.7782602 -1.3903295
000300 2b 3f 3b bf b6 8a f2 3e 33 6e 8e bf 19 1b c5 3f
       -0.7314326 0.47371453 -1.112738 1.5398895
000310 bf ac a4 bf f0 2b 94 3e e3 8d df bf a7 b6 d9 3f
       -1.2865218 0.28939772 -1.7465175 1.7008866
000320 41 e5 57 3f c0 31 7b bf 50 17 90 3f 08 c0 29 c0
       0.8433419 -0.9812279 1.1257114 -2.6523457
000330 36 89 9c bf be 18 6c 3e 91 59 5f be 03 30 db 3f
       -1.2229373 0.23056313 -0.2181151 1.7124027
000340 06 bd 9b 3f ad da 80 3f 67 f7 57 3d 76 7c 3e 3f
       1.216706 1.0066735 0.052726176 0.7440866
000350 44 40 b6 be 57 1f bf 3f b1 87 e7 3f 18 75 f4 bf
       -0.35595906 1.4931439 1.8088285 -1.9098234
000360 e0 14 ec bf a8 b8 c1 bf 8a af 99 be f9 97 a9 bf
       -1.844387 -1.5134478 -0.30016738 -1.3249503
000370 d5 d5 81 3f 4b d3 29 c0 5c bf 2f 3e 44 c2 2a c0
       1.0143381 -2.6535213 0.17162842 -2.668107
000380 b3 17 37 3f 4a f0 96 3e 74 50 72 be 1d 45 5e 3f
       0.7152054 0.294802 -0.23663503 0.8682421
000390 08 16 d6 bf 17 cf 0d bf af 42 9d 3e 49 00 51 bf
       -1.6725473 -0.5539412 0.30714938 -0.8164106
0003a0 b7 23 25 c0 34 f8 34 c0 5c 01 60 40 56 50 7e bf
       -2.5803049 -2.827649 3.500083 -0.9934133
0003b0 0a b6 41 bd 58 bf 12 3f 58 d3 55 3f bc a9 7d c0
       -0.047292747 0.5732322 0.8352561 -3.9634848
0003c0 27 21 95 bf 86 3e 42 bd 06 90 93 3f cc 53 c5 bf
       -1.1650742 -0.04742291 1.1528327 -1.5416198
0003d0 52 94 db 3e 77 ae c5 bf 10 5c b0 bf 88 1d 0e c0
       0.42886597 -1.5443867 -1.3778095 -2.2205524
0003e0 24 e5 a0 3e c3 9f 9e 3f cc 62 b2 bf 93 1b bb bf
       0.3142482 1.2392505 -1.39364 -1.461779
0003f0 67 cd 0a c0 31 08 e1 bf 2e 65 4e 3f 4f f3 de be
       -2.1687868 -1.7580625 0.8062314 -0.43545005

features.0.banch1.3.weight f4 [24]
000000 97 99 0f 41 c3 44 b6 40 bc ce f3 40 c6 f5 69 40
       8.9749975 5.695894 7.618986 3.6556258
000010 83 e6 8e 40 b8 2a 8b 40 fa 46 6e 40 71 07 58 40
       4.4656386 4.3489647 3.723082 3.3754542
000020 56 0f 5c 40 47 d8 5c 40 c8 72 3e 40 13 78 91 40
       3.438436 3.4507005 2.9757557 4.5459075
000030 78 aa 7f 40 cc e0 64 40 65 67 46 40 f4 bf 67 3c
       3.9947796 3.5762205 3.1000607 0.014144886
000040 84 d2 87 bb a2 2d 6d 40 8d 89 8f 40 01 6c 89 3e
       -0.0041449685 3.7059102 4.485541 0.26840213
000050 6a 80 a3 40 d1 1a fc 3f de e9 95 40 db 30 a9 40
       5.1094255 1.9695684 4.6847982 5.287214

features.0.banch1.3.bias f4 [24]
000000 b6 9d 95 c0 99 3d 52 40 7b 76 4a 40 03 ff 29 40
       -4.675502 3.2850096 3.1634815 2.6561897
000010 0c f8 eb bd 86 b4 8d 40 28 b8 1a 40 67 f0 9d 3f
       -0.115219206 4.4282866 2.41749 1.233899
000020 81 9b ea be 6c 52 01 3f eb 65 5e 40 15 e3 f8 bf
       -0.45821765 0.5051639 3.4749706 -1.94443
000030 9d a5 22 c0 bf 0b c4 bf 79 f8 4a bf a8 57 ad bd
       -2.5413582 -1.5316085 -0.7928539 -0.08463985
000040 d6 68 16 bd 6d fe b7 3f 9e 8f b9 3e 85 97 1c bf
       -0.036721073 1.437452 0.36242384 -0.611687
000050 65 c7 91 bf 04 3c 06 40 3a 54 0c 40 a9 15 36 40
       -1.1388975 2.097413 2.1926408 2.845072

features.0.banch1.3.running_mean f4 [24]
000000 1e a3 16 ba 0a ac ea b7 80 be 29 39 98 5d 20 39
       -0.0005746352 -2.7975086e-05 0.00016188063 0.00015293655
000010 f9 54 f4 b8 4c 07 09 ba 76 26 99 b8 14 12 17 39
       -0.00011650654 -0.00052272226 -7.3027724e-05 0.00014407217
000020 4f fb 9d 39 14 db ae b8 62 48 bd 38 fb 17 82 b7
       0.00030132613 -8.337773e-05 9.025705e-05 -1.5508374e-05
000030 e2 ae 52 39 90 7c 03 38 66 92 35 39 fb 9f 32 b7
       0.0002009231 3.134884e-05 0.00017316043 -1.0646875e-05
000040 cd af d6 b7 bc 31 8b b9 1a f8 7e 39 6f 45 ae b7
       -2.5592652e-05 -0.000265492 0.00024315753 -2.0774749e-05
000050 b4 99 16 39 6d 57 dd b6 f3 75 8b 39 c4 ff e6 b8
       0.00014362374 -6.596491e-06 0.00026600025 -0.00011014895

features.0.banch1.3.running_var f4 [24]
000000 7e b7 f1 45 22 64 c5 45 3f 14 9e 46 d6 44 a1 44
       7734.9365 6316.5166 20234.123 1290.1511
000010 70 74 f0 44 b0 80 75 45 63 70 46 45 2a 46 b4 44
       1923.6387 3928.043 3175.0242 1442.1926
000020 f8 10 6e 44 d3 46 b6 44 39 36 83 44 81 31 18 45
       952.26514 1458.2133 1049.6945 2435.094
000030 03 03 a3 44 bd 2a 74 44 af 0c e4 43 64 97 4e 40
       1304.0941 976.6678 456.0991 3.2279902
000040 45 71 90 40 ee f9 c0 44 55 28 d2 45 02 25 f3 41
       4.513827 1543.8103 6725.0415 30.39307
000050 4f 20 4f 45 b4 26 85 44 33 4d fd 45 ae 37 04 46
       3314.0193 1065.2095 8105.65 8461.92

features.0.banch2.0.weight f4 [24, 24, 1, 1]
000000 f2 eb 4a c0 9a 69 3d 3f 78 f0 39 c0 1b 8c c7 3d
       -3.170651 0.7398926 -2.905302 0.0974352
000010 a9 22 49 bf 28 a1 ed bf 31 41 8d bf cd cb 97 3f
       -0.7856851 -1.8564806 -1.103552 1.185907
000020 77 b2 84 bf 60 bc ae bf 4e f1 e9 3f eb 55 34 bd
       -1.0366963 -1.3651237 1.8276765 -0.04402725
000030 87 b6 98 3f 47 51 21 bf c4 2f 4d 3f dc 39 a0 c0
       1.1930703 -0.63014644 0.8015101 -5.007063
000040 24 04 1b bf 22 78 d1 3e 75 ec 53 bf 6f 2b b1 bf
       -0.60553193 0.40911967 -0.8278268 -1.384138
000050 b6 8d 23 3e bb 3a 07 bf 19 56 23 3f bd 1c 1a 3e
       0.15972027 -0.5282399 0.6380325 0.15050025
000060 e8 8d fe 3e 09 f6 08 3e d8 d8 71 3f c3 2a f0 3e
       0.4971764 0.13375105 0.944715 0.46907625
000070 35 73 5b 3c 57 83 34 3d b0 05 a1 3e 4c 83 44 3e
       0.013394167 0.044070568 0.31449652 0.19190711
000080 3f 06 ae 3e ce df 80 3e 81 7f 52 3f 39 05 aa 3e
       0.3398914 0.2517075 0.82225806 0.3320711
000090 da 4f f0 be 88 4e 0c 3f 67 af 0f be 55 d3 28 3f
       -0.46935922 0.5480733 -0.14031754 0.6594747
0000a0 fd 0d 00 3e 0b d9 88 3e 41 5c 21 3d 8a bd 71 3e
       0.12505336 0.2672809 0.03939462 0.2360746
0000b0 c9 35 a5 3e 83 8b 84 3e 82 84 80 3f ba 4f af 3e
       0.32267597 0.2588769 1.0040438 0.34240514
0000c0 4b b4 36 3e 8a a0 8a 3e 81 63 98 3e f2 70 29 3e
       0.17842214 0.27075607 0.29763415 0.16546991
0000d0 3a ac 18 3e 60 6c c6 3d 64 3d fa bc 8c 46 20 3d
       0.14909449 0.0968864 -0.030546851 0.03912978
0000e0 fc c4 86 3e 6c 89 83 bc 0b 2f 9c 3e 8a 26 af bc
       0.26322162 -0.016056739 0.3050464 -0.021380682
0000f0 6a ac 21 bd b1 82 58 3d 62 88 fc bd 7c 77 92 3e
       -0.039471067 0.052859012 -0.123307005 0.28606784
000100 f4 eb 43 3e ac d0 d5 3c fa 3a 00 be 83 44 f9 3d
       0.19132978 0.026100479 -0.12522498 0.12171271
000110 87 ef 02 bb 01 8d 07 3b a0 79 23 3d c9 50 f5 3c
       -0.0019979195 0.002068341 0.039910913 0.029945748
000120 03 94 b5 bf aa 30 32 be dc 71 b6 3f 6d 6d 02 bf
       -1.4185795 -0.17401376 1.4253497 -0.5094822
000130 c0 04 77 3d 04 02 b6 bf 0e e8 34 c0 b6 dc 63 bf
       0.060307264 -1.4219365 -2.8266635 -0.89008653
000140 af 4b 1d 3f ff 54 cc be f9 b1 1d 3e 58 e1 ca 3d
       0.6144361 -0.39908597 0.15399922 0.09906262
000150 62 98 9d be ac fe be 3f 3d 95 b2 3f 3e e9 08 40
       -0.3078032 1.492147 1.3951794 2.139236
000160 9d 8d e5 bd 9d 71 ab bd 16 28 6d bf 17 32 22 40
       -0.11208651 -0.083712794 -0.9263929 2.5343072
000170 f0 89 72 3f a9 a1 38 3f d2 2c 8e 3c 51 56 63 bf
       0.94741726 0.72121674 0.017355356 -0.88803583
000180 5a b5 b6 3f 1d 2f 22 3f d7 5c 6f 3e 01 ec bc 3e
       1.4274094 0.6335314 0.2337526 0.36898807
000190 9b eb fa be 6c e0 23 c0 a2 4b 99 3e ca b1 3e be
       -0.49007878 -2.5605726 0.29940516 -0.18622509
0001a0 bc 49 e1 3f b3 1b 86 3f 23 16 86 bf 0a 9d 56 c0
       1.7600627 1.0477203 -1.0475506 -3.353335
0001b0 50 95 6a bf 0e 4e 0d bf b5 ee 27 bf a0 87 84 3e
       -0.9163408 -0.55197227 -0.65598613 0.25884724
0001c0 9b 7e fa bf 83 63 26 c0 a0 55 bb bd c6 b4 32 bf
       -1.9569887 -2.5998237 -0.09147191 -0.6980709
0001d0 83 b8 a8 3f bd 50 a1 3f 5f e7 7b bf 41 ec 2f 3f
       1.3181309 1.2602764 -0.9839992 0.6871987
0001e0 e9 0b f6 3f 0f 22 f3 bf 6c d5 9e bf d7 c3 7a 3f
       1.9222385 -1.8994769 -1.2408881 0.9795508
0001f0 55 12 d7 bf f8 7e 5c 3f 7c 53 98 3f fa b8 32 3f
       -1.680247 0.8613124 1.1900477 0.698135
000200 ae 07 1b c0 13 63 81 bf 18 36 9a bf b6 18 02 bf
       -2.4223437 -1.010836 -1.2047758 -0.50818956
000210 3a 36 ea bd 4c 5e 0f 40 90 79 91 3f 9c 9f d1 3e
       -0.11436124 2.2401304 1.1365223 0.40942085
000220 13 49 86 3f b8 6e 5e 3f c4 7b 2a 3e 44 f8 20 3f
       1.049105 0.86887693 0.16648775 0.62878823
000230 e7 8c 11 40 46 e7 b9 3e a6 c9 ac 3e 80 ef 3d c0
       2.274225 0.3630926 0.33747596 -2.967743
000240 63 17 5c bf 6a 71 92 3f 1b 59 9a 3f a4 0c f4 3f
       -0.85973185 1.1440861 1.2058443 1.9066358
000250 f3 9e 9f 3f 25 e2 ed 3f fb c5 08 c0 c6 9c f7 3f
       1.2470382 1.8584639 -2.1370838 1.9344718
000260 0c e2 85 bf 9a c1 39 40 58 64 43 3f c1 e3 41 3f
       -1.0459609 2.9024415 0.7632499 0.7573815
000270 49 03 a0 3f 5e 1d a3 3f df 32 a7 bf 9c 9a 2a c0
       1.2501003 1.2743337 -1.30624 -2.6656866
000280 da e9 f5 3d ef 86 20 40 a7 be b5 bf 72 3c 9b 3f
       0.12007494 2.5082357 -1.4198807 1.2127821
000290 21 8b fd 3f 10 97 81 3f c0 10 b4 3f 00 a5 27 40
       1.9808084 1.0124226 1.4067612 2.6194458
0002a0 bb 09 7c c0 96 df 26 3f ec f4 d7 be 6e e3 5a 3f
       -3.938094 0.65184915 -0.42179048 0.8550328
0002b0 61 89 16 3e a5 e2 08 40 ce c5 70 c0 a1 6f 00 3f
       0.14700843 2.1388333 -3.762073 0.5017033
0002c0 8c 5b 2a 40 5a 5e 06 40 80 02 b5 3f 16 0b 38 bf
       2.6618376 2.0995088 1.4141388 -0.71891916
0002d0 2b 0c 97 bf 4a a0 8c bf b5 30 ec bd 2f 81 36 bf
       -1.1800588 -1.0986416 -0.11532728 -0.7129087
0002e0 59 94 27 bf 25 17 8f bf 5b 1e a1 bf 35 a1 26 40
       -0.65460736 -1.1178938 -1.2587389 2.6035893
0002f0 4a 44 a0 bf e7 4d 8f 3f b3 31 89 3f da 36 f8 3f
       -1.252084 1.1195649 1.0718292 1.9391739
000300 aa e6 2a 40 78 da 2d be ba 2c 2f 3f 51 60 02 be
       2.6703286 -0.1697787 0.6842762 -0.12732054
000310 64 66 87 be 7d 87 25 bf 52 0f a8 40 c1 38 65 3f
       -0.26445305 -0.64659864 5.25187 0.89539725
000320 6f 69 f4 3f 65 48 66 3f 2b d2 78 bf 47 f2 54 be
       1.9094676 0.89954215 -0.9719569 -0.20795546
000330 dd 19 38 be 8d dc 6f 40 f6 16 98 bf ab 26 85 3f
       -0.17978616 3.7478364 -1.1882007 1.0402426
000340 72 fc b2 3e 1e 73 ec bf 76 0b 92 3f a5 eb a0 3f
       0.34958225 -1.8472631 1.1409748 1.2571913
000350 fe a3 08 3d 80 b6 c6 bf e1 e7 01 bf f8 8c 00 40
       0.03335952 -1.5524445 -0.50744444 2.008604
000360 ef 40 47 be 59 d1 6e 3e ee e6 1e bf fa 94 ce 3e
       -0.19458364 0.23322047 -0.6207112 0.40348035
000370 e8 c4 c2 3d af b9 56 c0 dd 5b f0 bf 28 9d 1a bf
       0.09510213 -3.3550832 -1.8778034 -0.6039605
000380 79 a7 dd 3d d5 c8 c4 3f eb fe 74 bf b6 9d 72 c0
       0.108229585 1.5373789 -0.95701474 -3.790876
000390 64 8f 18 c0 a0 9f de be 68 e6 09 40 7d 67 56 be
       -2.3837519 -0.4348116 2.154688 -0.20937915
0003a0 00 da 0a 40 d9 00 20 40 43 4c 01 40 19 46 db bf
       2.1695557 2.5000517 2.0202796 -1.7130767
0003b0 a4 81 f6 3d 93 1f d1 bd e0 1e 18 3f 36 55 ac c0
       0.12036446 -0.102111004 0.5942211 -5.3854017
0003c0 66 a4 13 40 ef df 32 3f 34 ae 03 41 c0 7f 0e 40
       2.306909 0.69872946 8.23003 2.2265472
0003d0 f6 bc ff bf a3 e9 80 40 71 81 52 bf a9 76 ea 3f
       -1.9979541 4.02852 -0.8222876 1.8317462
0003e0 68 84 e2 3f a7 66 3a 40 d9 1b 85 bf 23 a3 eb 3f
       1.7696657 2.9125154 -1.0399123 1.840916
0003f0 6c d5 2b 3e 08 fc f7 bf b0 6d 06 c0 e1 f0 2e 40
       0.16780633 -1.9373789 -2.1004448 2.733452

features.0.banch2.1.weight f4 [24]
000000 dc de 80 40 3f 7a f3 3d 5a 29 ff bd 32 07 8a 3f
       4.0272045 0.11888551 -0.12459059 1.0783446
000010 3e 16 37 40 10 e2 2d 40 ba 3f 4d 40 d5 bf 31 40
       2.8607326 2.7169228 3.2070146 2.7773335
000020 b8 07 38 40 8f 18 5c 40 03 c8 c9 40 6c 3d 90 40
       2.875471 3.438999 6.3056655 4.507498
000030 4f bc 5c 40 8c 5a 31 40 d2 54 ca 40 e1 df 08 40
       3.4489934 2.7711515 6.322854 2.1386645
000040 73 05 a6 40 4d f7 77 40 f0 43 29 40 e2 dd eb 3f
       5.188165 3.874469 2.6447716 1.8427088
000050 2f 70 b1 40 84 a0 70 40 7a 4c 54 40 1c 97 3e 40
       5.5449443 3.759797 3.3171678 2.977973

features.0.banch2.1.bias f4 [24]
000000 4c c0 ea 3f 06 3c 01 c0 64 a9 25 bf 23 df fb 3f
       1.8339934 -2.0192885 -0.64711595 1.9677471
000010 c7 e9 85 40 aa 0d 18 be bc 31 fe 3f 7a c9 97 be
       4.1847873 -0.14848962 1.9858928 -0.29645902
000020 e9 72 c5 40 3e 15 2d 3e d4 13 c7 c0 5e d0 d2 bf
       6.170277 0.16902635 -6.2211704 -1.6469839
000030 89 75 25 bf 10 12 39 40 69 9c b4 40 97 d4 c4 3f
       -0.6463247 2.8917274 5.644093 1.5377377
000040 9f 5d a4 3f f6 33 26 40 02 59 a8 3e 9c ac c0 3e
       1.2841071 2.5969214 0.32880408 0.3763169
000050 1e 85 8f c0 10 69 78 3f 89 32 79 3f 74 c4 20 40
       -4.4849997 0.9703531 0.97342736 2.5119905

features.0.banch2.1.running_mean f4 [24]
000000 68 12 ef c2 47 fc 2e 42 56 21 58 41 62 c5 b4 40
       -119.53595 43.746365 13.508139 5.6490946
000010 e4 52 f1 c1 cd 00 34 40 31 3e 05 42 16 74 12 c2
       -30.165474 2.8125489 33.310734 -36.613365
000020 b2 fe da 42 bf 4d b5 c2 dc d6 1a 43 52 41 cd c2
       109.49745 -90.65185 154.8393 -102.62758
000030 a5 62 58 42 73 c1 48 c2 dc ca 8e c3 3d 9c 92 c2
       54.096333 -50.188915 -285.58484 -73.30515
000040 f7 14 72 c2 2d d2 f9 c2 c2 50 43 42 0d d5 c7 c1
       -60.520473 -124.9105 48.828865 -24.979029
000050 38 c2 14 43 18 bc b6 c2 79 7e 60 41 06 77 33 c1
       148.75867 -91.36737 14.030877 -11.216558

features.0.banch2.1.running_var f4 [24]
000000 10 c0 fb 44 0a 6f 61 43 cf 70 dc 41 a8 53 72 43
       2014.002 225.43375 27.555082 242.32678
000010 20 92 c6 44 2e 79 40 43 f7 31 fb 44 12 84 76 43
       1588.5664 192.47336 2009.5614 246.5159
000020 38 8d a4 44 1c df cc 43 86 35 bd 45 30 67 99 44
       1316.4131 409.74304 6054.6904 1227.2246
000030 39 a4 85 44 82 78 40 44 a1 a3 eb 45 eb d2 3f 44
       1069.132 769.88293 7540.4536 767.2956
000040 d8 dd 4e 45 fa 79 e6 44 a7 69 16 44 fe 86 0a 43
       3309.8652 1843.8118 601.6508 138.52731
000050 7a d8 64 45 92 8f ba 44 1f 44 e0 43 2e f5 8b 44
       3661.5298 1492.4866 448.5322 1119.6619

features.0.banch2.3.weight f4 [24, 1, 3, 3]
000000 81 e5 f6 bf c4 c9 78 c0 9e 70 9b bf de 8b ce 3f
       -1.9288789 -3.8873148 -1.2143743 1.6136434
000010 ac 45 0f 3f 23 9e 90 c0 67 4b 92 40 5c 44 04 40
       0.55965686 -4.519304 4.5717044 2.0666723
000020 9e 44 05 bf 92 c2 3e bf 55 32 aa be 6f 7a 16 bf
       -0.52057827 -0.7451564 -0.33241525 -0.5878057
000030 0a 14 65 bf 38 4e 27 be e1 ab 0a bf d7 a7 8f bf
       -0.894837 -0.16338432 -0.54168516 -1.1223096
000040 c5 06 c4 be d5 c5 4b bf bb f5 89 3e 23 5f c1 bc
       -0.38286415 -0.7959874 0.2694529 -0.023604935
000050 71 47 90 bc 25 68 a2 3e b7 2d d2 bd 8a 7e f9 3e
       -0.01761219 0.3172008 -0.10262626 0.48729354
000060 93 41 98 3e 81 11 17 3e ff 47 d2 3d 16 d2 93 be
       0.2973753 0.14752771 0.102676384 -0.2887122
000070 49 91 23 bf ec ba ec 3f 65 dd e0 bf e4 7d 34 c0
       -0.6389356 1.8494544 -1.7567564 -2.8201838
000080 0a 43 2f 40 c4 36 e8 3f 13 7a ae 3f a4 e9 a5 bf
       2.7384667 1.8141713 1.3631004 -1.2961926
000090 e1 98 b6 bf 0e d5 fc 3c 60 d1 c5 bf 76 3e 1a bf
       -1.4265405 0.030863311 -1.5454521 -0.6025156
0000a0 81 ff 19 40 fb d2 66 c0 b0 28 34 40 79 86 87 40
       2.4062197 -3.6066272 2.8149834 4.235165
0000b0 7a e9 10 40 82 8e 81 3e 3f 06 23 be 5f d5 23 bf
       2.2642503 0.25304037 -0.15920351 -0.63997453
0000c0 9c a3 ff 3f 26 84 9a bf c1 3d 18 bf 5f 20 d6 3f
       1.9971805 -1.2071579 -0.5946923 1.6728629
0000d0 10 a3 05 40 53 0e 3f 40 9b f4 16 c0 f5 bb 1d 3f
       2.0880775 2.9852493 -2.3586795 0.61614925
0000e0 c4 15 7d 3f 12 38 83 bf c4 b4 05 40 df f2 ca 40
       0.98861337 -1.0251486 2.089158 6.3421474
0000f0 5a 2d 0b c0 bb 35 7f bf 90 f1 b8 be b8 cb 01 40
       -2.174643 -0.9969136 -0.36121798 2.028059
000100 c5 a7 8d 3f f5 17 38 40 c1 d6 74 3d f4 a0 5b bf
       1.1066824 2.8764622 0.059775118 -0.8579247
000110 c3 b9 49 c0 c7 9a 84 bd 75 25 8c 3f 07 3e c0 bf
       -3.151963 -0.06474834 1.0948931 -1.5018929
000120 50 cd 34 c0 57 3f 46 c0 a2 e8 9c 3e 19 65 71 c0
       -2.8250313 -3.097616 0.30646235 -3.7717955
000130 12 5c 98 c0 14 c3 53 3f b9 e5 9c 3f 57 2d b7 be
       -4.761239 0.8271954 1.2257606 -0.3577678
000140 75 db 9c 40 24 5d c3 bd c9 8a 53 be dd 28 38 bd
       4.901789 -0.095392495 -0.20658411 -0.044960845
000150 42 1c 0f bf 5b 53 25 40 57 6f a6 bd af 06 05 40
       -0.55902493 2.5832126 -0.08126705 2.078533
000160 77 a2 55 40 bd 50 9f bf de 87 e3 bf 8f e1 f4 bf
       3.338041 -1.2446514 -1.7775838 -1.9131335
000170 aa a8 c4 bf 3f 94 9f bf ed 0a 49 c0 94 13 ce c0
       -1.5363972 -1.2467116 -3.1412919 -6.43989
000180 9f fa 1f be 96 58 81 c0 f5 f6 a5 c0 96 59 41 40
       -0.15622948 -4.0420637 -5.186396 3.021093
000190 44 7c 6f bf e7 04 b7 3e 8c 5b ad 3e 34 0c 7e c0
       -0.9354899 0.35745928 0.33858907 -3.9694948
0001a0 a8 01 26 c0 6e 34 c9 3f 37 67 3d be ca 15 0c c0
       -2.593851 1.5719125 -0.18496405 -2.18883
0001b0 39 62 b3 3e 2b e4 86 bf 10 67 aa bf 30 4d 24 40
       0.35035875 -1.0538381 -1.3312702 2.5672112
0001c0 b7 85 8a 3f 90 fb 54 c0 63 5d 90 3f ed d2 41 40
       1.0822057 -3.3278542 1.1278499 3.028499
0001d0 5a 4a 12 bf 7b 5e 9a 3e 81 29 dd bf c5 8d 5a c0
       -0.571447 0.30150208 -1.7278291 -3.414903
0001e0 3a bc a0 bf 56 04 50 40 1d fe 8d c0 63 e2 3f 40
       -1.2557442 3.2502646 -4.4372697 2.9981925
0001f0 69 64 1c 40 84 52 cb 3f ce fe 89 bd 5f ef 65 bf
       2.4436285 1.5884557 -0.06738053 -0.89818376
000200 ae 08 0d 40 58 52 eb 3f e6 ca 38 40 15 2e f0 40
       2.2036548 1.8384504 2.887384 7.5056252
000210 a8 65 14 40 2b 5a ab 3f bf d5 03 41 93 6b b8 3f
       2.3187046 1.3386892 8.239684 1.4407829
000220 85 ed c6 3c d0 4c 7b bd 04 33 7a be 50 9c 2c 40
       0.02428318 -0.06135255 -0.24433523 2.6970406
000230 0f 47 02 c0 6d 5d 17 bf ec ca 8b c0 ab 4a 91 bf
       -2.035587 -0.5912693 -4.3685207 -1.1350912
000240 88 ef ff bf e4 e7 a4 bf 9f 9e 80 bf 6e a0 a9 3f
       -1.9994974 -1.2883267 -1.0048407 1.3252084
000250 5a c5 0e 40 e0 32 70 40 5f b8 f8 3f 65 04 4c 40
       2.2307954 3.7531052 1.9431266 3.1877682
000260 78 25 59 40 a7 5d 8c 3f 17 95 9a bf e9 fd 35 be
       3.392912 1.096608 -1.2076749 -0.1777264
000270 87 82 19 bf a8 c8 54 bf de 6d 66 c0 a3 43 94 3e
       -0.59964794 -0.8311868 -3.6004558 0.28957853
000280 12 41 82 c0 5d b3 96 c0 82 fd 0f bf 8a 36 1d 3f
       -4.070443 -4.709395 -0.562462 0.61411345
000290 ee 67 54 be b7 27 6b bf a0 e9 39 c0 8c e2 0c c0
       -0.20742771 -0.91857475 -2.9048843 -2.2013273
0002a0 3f d5 d5 3e 5d 22 79 bf f6 83 45 be 3e b4 b0 bf
       0.41764256 -0.9731806 -0.1928862 -1.3805006
0002b0 19 88 df bf 9c e2 d6 be f6 67 99 3e 7b 71 0e 3f
       -1.7463409 -0.41969764 0.29962128 0.5564191
0002c0 3e 95 55 bf 26 fc c7 be 47 13 fe be bf 04 e3 bf
       -0.8343085 -0.39059561 -0.49624082 -1.7735823
0002d0 93 af 58 bf ba 9f 25 c0 68 ae d8 bf 2f 4c 34 c0
       -0.84642905 -2.587874 -1.6928225 -2.8171499
0002e0 9d 65 a1 c0 33 45 a0 c0 81 c3 8a c0 dd f3 25 c0
       -5.043654 -5.008447 -4.336365 -2.5930092
0002f0 d1 8d 54 c0 da de ee be d8 04 c4 bf 6d b0 dc 3f
       -3.3211558 -0.46654397 -1.5313978 1.7241341
000300 f3 09 d8 3f 6d 0d 5e 3e c1 b2 e9 3e 73 dc 3d c0
       1.6878036 0.21684809 0.4564419 -2.9665802
000310 9b 62 aa c0 d8 f8 cd bf c9 58 14 40 94 1b 0c 40
       -5.324537 -1.6091566 2.317919 2.1891832
000320 5f 1f fd 3f bf 36 9a 3f 38 1e 6d 3f 4c 39 e5 3f
       1.9775199 1.2047957 0.92624235 1.7908111
000330 88 64 83 3f 7a 20 b8 bf c6 f1 78 3f 2a 11 7f c0
       1.0265055 -1.4384911 0.97243917 -3.9854226
000340 4f fa 1c bf ae c5 0a 3f 3e c9 23 ba c4 87 ca 40
       -0.6131944 0.54207885 -0.0006247944 6.329073
000350 6c 66 e2 3f 75 98 67 3f dd 44 a2 3f a0 fb a2 bf
       1.7687507 0.90467006 1.2677265 -1.273304

features.0.banch2.4.weight f4 [24]
000000 c3 4c a5 40 80 0b 86 3f a3 64 14 3f 16 a2 26 40
       5.1656203 1.047226 0.5796606 2.603643
000010 e8 7f a4 40 07 7b 71 40 11 48 a4 40 47 59 1d 40
       5.1406136 3.773134 5.133797 2.458574
000020 31 2a c1 40 89 1e 56 40 0a 5c d9 40 e7 27 5d 40
       6.0364003 3.3456137 6.792485 3.4555604
000030 91 b9 38 40 c4 10 86 40 79 d9 00 41 39 9b 45 40
       2.886326 4.1895466 8.053094 3.087599
000040 ba 01 c1 40 58 8d a8 40 10 55 68 40 e8 ec 18 40
       6.031461 5.267254 3.6301918 2.3894596
000050 23 ac f2 40 ed ff 80 40 cc 1a 97 40 7d 77 95 40
       7.583513 4.031241 4.722021 4.670836

features.0.banch2.4.bias f4 [24]
000000 ee be 0b 38 cc 7d 02 b6 cb 43 cb b6 cf e7 82 35
       3.3318e-05 -1.9444733e-06 -6.0577636e-06 9.75322e-07
000010 93 9b 63 36 eb 43 07 37 f7 9e 09 37 7c 07 f2 b6
       3.3916192e-06 8.06244e-06 8.202848e-06 -7.2130333e-06
000020 e6 28 59 37 5b 03 9f b7 9d e8 48 b6 07 e6 45 37
       1.294373e-05 -1.895584e-05 -2.9937721e-06 1.1795672e-05
000030 ef 7b be b6 46 93 1b b7 aa 21 72 b4 c5 9b 97 b5
       -5.676869e-06 -9.27301e-06 -2.2550253e-07 -1.1295712e-06
000040 07 7d b3 37 84 6a d2 35 af eb f4 b7 45 6e 54 b6
       2.1396683e-05 1.5677219e-06 -2.9196815e-05 -3.1654647e-06
000050 b1 fc 3e 37 83 5a aa 36 e3 76 1c b7 7e 58 14 36
       1.1383717e-05 5.0769318e-06 -9.326005e-06 2.2105228e-06

features.0.banch2.4.running_mean f4 [24]
000000 97 c2 d4 c0 04 00 00 80 04 00 00 00 e9 56 ee 3f
       -6.6487536 -6e-45 6e-45 1.8620273
000010 e6 c3 b9 41 b3 a4 af 40 5b a5 4d 41 2a 58 ac bf
       23.220654 5.488855 12.85287 -1.3464406
000020 62 86 cf c1 39 b1 1d 41 7b 34 91 c1 10 b5 b9 c0
       -25.940617 9.855767 -18.150625 -5.8033524
000030 79 a9 d9 3f 54 95 49 be 07 95 1a 43 f2 d8 00 c1
       1.7004844 -0.1968587 154.58214 -8.052965
000040 2c b7 0c 42 5a 94 36 c2 8f 67 05 c1 49 92 7f c0
       35.17888 -45.644875 -8.337783 -3.9933035
000050 a9 02 a9 c1 f3 2b 70 c1 c9 64 64 41 ae be 8f 41
       -21.126299 -15.01073 14.274606 17.968105

features.0.banch2.4.running_var f4 [24]
000000 4d 06 16 44 04 00 00 00 04 00 00 00 43 17 9c 41
       600.09845 6e-45 6e-45 19.511358
000010 71 03 91 43 3a b7 a2 42 6b 4d a1 43 ff 72 6b 42
       290.0269 81.357864 322.60483 58.8623
000020 28 16 3f 44 d2 ee b4 42 0d 5b 6c 44 9b aa df 42
       764.3462 90.466446 945.42267 111.83321
000030 06 d4 9b 42 5b 0c 78 43 7c de 13 46 56 f6 71 42
       77.91411 248.04826 9463.621 60.490562
000040 7d bc d1 44 40 74 7a 44 dc 73 d6 42 f5 26 8e 41
       1677.8903 1001.8164 107.22629 17.769022
000050 50 57 aa 44 00 02 92 43 84 57 88 43 da 0f ba 43
       1362.7285 292.01562 272.68372 372.12384
